…
/users/PYS0284/com0620/.local/lib/python2.7/site-packages/keras/backend/theano_backend.py:1237: UserWarning: DEPRECATION: the 'padding' parameter is not going to exist anymore as it is going to be replaced by the parameter 'pad'.
  mode='max')
loaded model
loaded weights
____________________________________________________________________________________________________
Layer (type)                     Output Shape          Param #     Connected to                     
====================================================================================================
convolution2d_1 (Convolution2D)  (None, 32, 198, 198)  896         convolution2d_input_1[0][0]      
____________________________________________________________________________________________________
activation_1 (Activation)        (None, 32, 198, 198)  0           convolution2d_1[0][0]            
____________________________________________________________________________________________________
maxpooling2d_1 (MaxPooling2D)    (None, 32, 99, 99)    0           activation_1[0][0]               
____________________________________________________________________________________________________
convolution2d_2 (Convolution2D)  (None, 32, 97, 97)    9248        maxpooling2d_1[0][0]             
____________________________________________________________________________________________________
activation_2 (Activation)        (None, 32, 97, 97)    0           convolution2d_2[0][0]            
____________________________________________________________________________________________________
maxpooling2d_2 (MaxPooling2D)    (None, 32, 48, 48)    0           activation_2[0][0]               
____________________________________________________________________________________________________
convolution2d_3 (Convolution2D)  (None, 64, 46, 46)    18496       maxpooling2d_2[0][0]             
____________________________________________________________________________________________________
activation_3 (Activation)        (None, 64, 46, 46)    0           convolution2d_3[0][0]            
____________________________________________________________________________________________________
maxpooling2d_3 (MaxPooling2D)    (None, 64, 23, 23)    0           activation_3[0][0]               
____________________________________________________________________________________________________
flatten_1 (Flatten)              (None, 33856)         0           maxpooling2d_3[0][0]             
____________________________________________________________________________________________________
dense_1 (Dense)                  (None, 64)            2166848     flatten_1[0][0]                  
____________________________________________________________________________________________________
activation_4 (Activation)        (None, 64)            0           dense_1[0][0]                    
____________________________________________________________________________________________________
dropout_1 (Dropout)              (None, 64)            0           activation_4[0][0]               
____________________________________________________________________________________________________
dense_2 (Dense)                  (None, 1)             65          dropout_1[0][0]                  
____________________________________________________________________________________________________
activation_5 (Activation)        (None, 1)             0           dense_2[0][0]                    
====================================================================================================
Total params: 2195553
____________________________________________________________________________________________________
Processing filter 0
Current loss value: 1 -81
Current loss value: 2 -81
Current loss value: 3 -81
Current loss value: 4 -81
Current loss value: 5 -81
…
